improved_neural_network_model.pth (torch, 53320 bytes, 7 tensors)

model.0.weight f4 [128, 15]
00000000: 4224 7abe ded2 0c3e ed35 553e a26f 27be
00000010: ed7c 80be 2e2b 783e 3cc1 ddbd 416c e0bc
00000020: 51e5 65be fdd9 363d 1124 563e 7a69 823e
00000030: 5b5c 55be deef 27bd dcef 843e b9a3 44be
00000040: cdff e93d 3d11 c13d 334d b03d 0fff 3c3e
00000050: 4ec1 54bd f180 7c39 9d29 0d3d b527 833b
00000060: e7e7 1e3e ec53 b3bd caa1 8c3d d732 183e
00000070: 4907 72be 9017 573e 173c 59be e5b3 fdbd
00000080: 9801 f03d d362 18be 81be 85be 1113 eabb
00000090: 9f0b 6fbd b501 00be 3f8b 843e 40ad e1bc
000000a0: 5fc5 813e 65b0 453e ddb6 073e e33d 593e
000000b0: c44b cc3d ae39 d53d f48f df3d c560 593d
000000c0: 12cd 843e 74cc 4bbd 71b7 9cbd 522f 3a3e
000000d0: c543 773e 9fef 76be 99a9 ec3d 210c 23be
000000e0: 0e0c 9a3d 8539 0c3d d030 15be 3508 313e
000000f0: 6a72 0d3d 30b3 5c3e 02ee 9c3a 8726 d03c
00000100: 7016 04bc 182b b63d 5452 2cbe 0ec9 dcbc
00000110: d06e 693e 6586 e43d 7beb 303e 61e9 69bb
00000120: 38eb 833e a643 843e 8499 7a3e b4c6 293e
00000130: 107c 1f3e 1bd6 313d 9360 113e f161 953d
00000140: fdea afbd a61f 36be e58e 523e 46aa 2e3e
00000150: dba7 693e 5703 713e a772 493e 70ab 1e3d
00000160: ae24 0cbb 354d 7c3a 07d8 31be a6f3 6cbd
00000170: 87d6 7e3e 9092 a43c cd91 213e d027 be3d
00000180: 68b7 4ebe c931 64bd 2375 57bd c4e4 4fbe
00000190: 1237 b9bd d180 963c ebc8 8abd 1334 eebd
000001a0: 6eb9 643e 03b6 673e bf53 66be 0b27 043e
000001b0: db84 45bd 556c 1a3e 8eb8 6d3e 4c20 cd3d
000001c0: a8c8 c6bd 42c5 813e a57b da3d 5397 d83d
000001d0: 9d30 1ebe 369d 4f3e 3061 39bd 2d75 fe3d
000001e0: 3dba c8bd b585 62bd d9b4 bdbd 03f2 1e3d
000001f0: ff81 58be 1112 713e 0a52 babd 8590 9dbd
00000200: 5f04 be3d d7fc 103d 5d55 29be 56b2 2ebe
00000210: 9933 753e f3fc 69be e77d 6dbd a2a9 673e
00000220: f88d 5d3e f2db f8bc a123 863e 4656 85be
00000230: 3306 193e 8b12 233e 3141 0abd 4ea6 2b3e
00000240: 5a49 b9bd edb1 39be 2b12 48be 111a eebd
00000250: 330f 043e 1f93 1bbd e4c7 853e 37af cf3c
00000260: b5fd 47be 6c89 903d 6b03 883e 0bb7 373e
00000270: 1d98 0dbc dc2b 683e 40c9 22be 1897 283e
00000280: 7768 37be 6b0f 883d 4c2f 79be 45f1 4e3e
00000290: 3c5a c43d ac4f 8e3d 9443 3ebe f44f 06bd
000002a0: 2576 c73d 4030 13be d705 3c3e 256f b83d
000002b0: 5284 493d 9e5d 553d a424 dbbd 264d 12be
000002c0: fad4 adbd 96c0 143d abff 0cbe 3017 bc3d
000002d0: e806 ebbd c8de b03d 6599 23be 6ace 823e
000002e0: 24b0 adbd e790 88bd 7b25 7ebe 169c c93d
000002f0: 87f9 233e 27ff 1e3e 17dc 82be 8660 40be
00000300: eceb 833e f3d5 6bbd c188 aabd 3eed 5abd
00000310: 8dc4 df3b e009 453e d7cb 413d d76d 0dbd
00000320: a849 8c3d e961 6bbb 974c 16be 5769 213e
00000330: bfd9 2fbe cd78 62be 6d37 18be 04b3 f3bd
00000340: fb72 49be d152 38bd d34d f43d 0b01 b0bd
00000350: 6a3e 2cbe a429 823c 9400 1fbe 41d3 e43d
00000360: 9fc4 4bbe 59db 32be 3808 a23d fd48 09be
00000370: d75f 77bd eafc 113e 7949 46be 24be 083e
00000380: 1950 863e d172 3e3e 900a 7dbc 18e7 a6bd
00000390: d982 6b3d 9fd7 b4bd b619 5d3e 9099 063d
000003a0: ebbf bcbd c0b4 82be 694c 7a3e 0f99 863d
000003b0: acbe dc3c de91 babd 70e8 4b3d c84f 463d
000003c0: c7a0 93bd 2471 91bd 39b6 8e3c 6ae9 4f3e
000003d0: d4a7 e2bd bacc 53be 7d15 673e 2c18 5abe
000003e0: aa51 33be 20a9 0a3e 4071 463e 3afb af3c
000003f0: d333 d03d 0200 83bd be08 a53d eea6 353e
-0.24427894 0.13752314 0.20821352 -0.16351178 -0.2509531 0.24235222 -0.10827872 -0.02739537
-0.22450759 0.044641484 0.20912196 0.25471097 -0.20836012 -0.04100024 0.25964248 -0.1920308
0.11425743 0.09427116 0.086084746 0.18456672 -0.051942162 0.00024080627 0.034463514 0.004002536
0.15518151 -0.08756241 0.06866796 0.14863144 -0.23635592 0.21005082 -0.21214329 -0.12387828
0.11719054 -0.14881448 -0.26121905 -0.007143386 -0.058360692 -0.12500651 0.25887486 -0.027548432
0.25345895 0.1930557 0.1325335 0.21215014 0.09975389 0.10411392 0.10916129 0.053070802
0.25937706 -0.04975553 -0.07652176 0.18182114 0.24146946 -0.24114846 0.11555786 -0.15922596
0.075218305 0.034234542 -0.14569402 0.17288287 0.034532942 0.2155273 0.0011972787 0.025408996
-0.00806199 0.08894938 -0.1682828 -0.02695134 0.22796178 0.11158446 0.17277329 -0.0035692083
0.25765395 0.25832862 0.24472624 0.16579705 0.1557467 0.043417078 0.14196996 0.072940715
-0.08589742 -0.1778551 0.20562322 0.17057142 0.22817938 0.2353643 0.19672643 0.038737714
-0.0021384167 0.0009624542 -0.17367564 -0.05784955 0.24886523 0.020089418 0.15778275 0.092849374
-0.20187151 -0.05571154 -0.052601945 -0.20302111 -0.09043707 0.018371971 -0.06776603 -0.11631026
0.22336361 0.22628026 -0.22492884 0.12905519 -0.048222404 0.15080388 0.23214933 0.10015926
-0.09706241 0.25345808 0.106681146 0.10575738 -0.15448232 0.20274815 -0.0452587 0.12424693
-0.09801147 -0.055303294 -0.092630096 0.03880502 -0.2114334 0.23542048 -0.09097679 -0.076935805
0.092781775 0.035397377 -0.1653647 -0.17060217 0.23945464 -0.22850399 -0.057981398 0.22623304
0.21636188 -0.030378316 0.26199058 -0.26042384 0.14943771 0.15925042 -0.033753578 0.16762659
-0.09047194 -0.1813428 -0.1953818 -0.116260655 0.12896423 -0.037982102 0.26129067 0.025352104
-0.19530375 0.07057461 0.26565108 0.17940919 -0.008642224 0.22672981 -0.15897083 0.16463888
-0.17910944 0.06643566 -0.24334449 0.20209225 0.09587523 0.0694879 -0.18580467 -0.032791093
0.09739331 -0.14373875 0.18361603 0.09005574 0.049198456 0.052091233 -0.10700348 -0.14287242
-0.08487888 0.036316477 -0.13769405 0.0918411 -0.11475927 0.08636242 -0.15976484 0.25548106
-0.08480862 -0.06668263 -0.24818985 0.09844224 0.16013156 0.1552702 -0.2555854 -0.18786821
0.25765932 -0.057577085 -0.08326865 -0.053448908 0.0068288506 0.19242048 0.047313537 -0.03452858
0.06849986 -0.0035916513 -0.14677654 0.1576284 -0.17172907 -0.22116394 -0.14864893 -0.11899379
-0.19672768 -0.045000855 0.11928906 -0.08593949 -0.16820684 0.015888996 -0.15527564 0.11173106
-0.19899224 -0.17466487 0.07911724 -0.13406749 -0.060394134 0.14256635 -0.19363965 0.13353783
0.26232985 0.18598486 -0.015444413 -0.081495464 0.057497833 -0.08830189 0.21591839 0.032861292
-0.09216293 -0.25528526 0.2444321 0.06572162 0.026946388 -0.09109853 0.049782217 0.04841593
-0.072084 -0.07101658 0.017420875 0.20303884 -0.11067167 -0.20683566 0.22566791 -0.21298283
-0.17511621 0.13541079 0.19379139 0.021482099 0.10166135 -0.06396486 0.08058308 0.1773946

model.0.bias f4 [128]
00000000: 8941 17be f542 0fbe 56f1 713e f2d3 83bc
00000010: a2ec bdbd d161 353d e0b0 14be c88e 123e
00000020: 58d4 4f3e 1249 4cbd 0e1f 0e3e 7ecd 24be
00000030: 4c9b f939 0c19 d33d ad08 913c d157 4fbc
00000040: 2ba7 1c3e 60a3 12be a662 293e d025 58be
00000050: 67bd d03d ae73 28be f731 073e a9a7 64be
00000060: c187 2bbe 3bdb 603e c829 043e 2f57 e4bd
00000070: e193 80be 5818 d53d b497 f53d 87a6 69be
00000080: 807e 2ebd 0e67 3f3e d4df 1e3e 3449 943d
00000090: 1d9e 153e 0ec2 d93c 1509 a03d 6a45 913d
000000a0: 16b9 34bd 3960 853d 6889 87be e47e d03c
000000b0: 2925 5e3e 844e 173e 6c2a 08be 5071 ae3d
000000c0: b2c3 5d3e 0a12 ce3c 9900 263e 936a 5dbe
000000d0: b338 e13d f3f4 cbbd 67eb 7bbd 5d88 2d3e
000000e0: b87b 2f3d 1509 a8bd 074f 45be cbf4 ca3d
000000f0: 2ab3 303e b7ad 273e f20e babd 2c8c eabd
00000100: 172b ae3c 6509 52be e8cd 8cbd ab5e 1ebe
00000110: b0a4 7d3d 6dc8 4bbd 17b4 8abe 3220 66be
00000120: a81b 3c3e 881b 82be a822 f3bd 78e4 283e
00000130: 3015 173e a261 1ebe ccd8 303d 6b08 1a3e
00000140: 2208 893d 9ea8 753e 5f0d 763e 6565 d13d
00000150: f98b bfbd 831a 61be 47bf 3d3e 988b 7a3e
00000160: 6907 543d 920f e9bd 97a3 45be e044 87bd
00000170: 5ecb 13bd 6f42 acbd 36a5 37be 34b1 5a3e
00000180: ccda babd c282 a03d d1c8 283e 7e23 bcbd
00000190: 820a 193e 9cb4 543e ebf5 2abe f46d 683d
000001a0: 9ddc 863e f61b 0b3d 3075 d23d 23aa 273e
000001b0: 7802 6f3e f42d 45be 0bef 89bd ec1b 713e
000001c0: 90d9 803e 3ecc 12be 23dd 0a3e 9a05 603e
000001d0: 4f9c 1abe a06d 84be c0e5 3ebe a89b 3c3c
000001e0: 1b2a 303d 9328 44bd f6b3 4bbe 2a27 313e
000001f0: a6b4 5c3e e02c e3bd b853 cbbd 1f9e 063e
-0.14771093 -0.13990386 0.23627219 -0.016092274 -0.0927365 0.044282738 -0.14520597 0.14312279
0.20295846 -0.049874373 0.13879034 -0.16094014 0.00047608686 0.10307512 0.017704332 -0.012655214
0.15298145 -0.14320135 0.16541538 -0.21108174 0.10192376 -0.16450378 0.13202654 -0.22329582
-0.16751005 0.2195863 0.12906563 -0.111494415 -0.25112823 0.10405034 0.11991826 -0.22817431
-0.04260111 0.18691656 0.15515071 0.07240525 0.14611097 0.02658179 0.07814232 0.07093318
-0.044121824 0.06512494 -0.2647202 0.025451131 0.21693863 0.14776045 -0.13297433 0.085177064
0.21656683 0.025155086 0.16211165 -0.21622686 0.10997143 -0.0995883 -0.061503794 0.1694655
0.042842597 -0.08204857 -0.19268428 0.09909972 0.17255846 0.1637486 -0.09084882 -0.11452517
0.021260781 -0.20511396 -0.06875211 -0.154658 0.061924636 -0.049751688 -0.27090523 -0.22473219
0.18369925 -0.2541163 -0.118718445 0.16493404 0.14754176 -0.15466931 0.043175504 0.15042274
0.06691004 0.23990104 0.24028538 0.102244176 -0.093528695 -0.2198277 0.18529998 0.24467313
0.05176488 -0.11379923 -0.19300686 -0.06604934 -0.036082618 -0.08411109 -0.17934117 0.2135666
-0.091237634 0.0783744 0.16482855 -0.09186457 0.14945415 0.20772022 -0.16695373 0.056745484
0.2634019 0.033962213 0.10276258 0.16373496 0.23340786 -0.19255811 -0.06735047 0.23545808
0.25165987 -0.14335725 0.1356092 0.21877137 -0.1509869 -0.25864887 -0.1864233 0.011511721
0.043008905 -0.047890257 -0.19892868 0.17300096 0.21553287 -0.110925436 -0.099280775 0.13146256

model.3.weight f4 [64, 128]
00000000: 64f0 b13c 55ab 29bd 07bb 8abd a0eb 84bd
00000010: 6f98 5cbc 9b9b 9bbb 7952 5ebd 027c a13a
00000020: c7b4 9cbd e04f 75bd d1e6 a1bd cf8f 883d
00000030: 8b2b ed3c 1cda 02bd 255d 55bd 213b fc3b
00000040: acb7 1b3d ac96 94bd ee41 b63d 972d 17bd
00000050: 94eb a93d bf5c 76bd af9b b33d 5d0c 543d
00000060: 9834 a2bd 6e0c 0dbb 5198 733d 9569 47bd
00000070: 1140 a43d 5d5c b23d 50be 833b 4d69 fabc
00000080: ffca 16bd aaf3 7dbc 12c4 6fbd a668 953c
00000090: 152f 0fbc 55d5 b73d e047 60bd 41d2 033d
000000a0: c03e 09bd 93c0 8dbb c2da a33d 50c8 46bd
000000b0: e33c f2bc 959d f9bc 07ee af3d 3b99 c53c
000000c0: a741 923d 438e 43bd 1f80 8dbc 510e f33c
000000d0: 2d57 943d 5bb5 9dbd 7e87 c43c e520 563d
000000e0: 3cc4 713a d694 14bd 391b 6c3c dd69 87bd
000000f0: 8d4c b93d 29d3 9b3d fd0e 333c 13c4 7ebc
00000100: 5b44 01bd 6a5d aa3d 5eec 563d 403a 9dbd
00000110: 728b c33d 003e 303d c20d c23c 4578 b43c
00000120: ee4e 583d ec55 97bd 3bdf 86bc b5f0 023d
00000130: 17d4 7abd e4c3 893d ca59 4e3d df17 97bd
00000140: fb69 8bbd 2a20 f13c 649c a7bd b41b f9bc
00000150: ae04 aa3d fcda 8cbd c8d7 083d 3190 b339
00000160: dff6 d1bc e1e3 abbc c999 9b3d 1013 083b
00000170: a1f1 973d cd9c 71bd f33e a93d 7def 163d
00000180: a627 e339 b15c 93bc e6ee acbd 54e6 96bd
00000190: ae3d 0c3c f5e1 83bc d02f 1f3c c00a b53d
000001a0: ccda 6e3c 820b c13d c95c 073c 2db3 e2bb
000001b0: 2439 a43d c8f8 5bbd c285 b23d b998 9fbd
000001c0: 2f08 b03b 8d1e 443d 4573 0abd 6569 87bd
000001d0: 044a 403d 6b7d 96bc 13db dcbc 1110 9cbc
000001e0: ad11 293d aa1d 91bd f131 f13c 15ce 99bd
000001f0: 9cc8 ffbc 0531 ae3d dd5b 9cbd 9d1c ae3c
00000200: 991d 503d 39ff 9d3b b8fa 96bc 7335 2ebd
00000210: d55c 923b 0e3c 473d daa4 65bc 3c14 5ebd
00000220: 829e 1abd 78a4 563d 0c77 d23c 6ea1 20bd
00000230: 88cd d7bc 3430 07bd d2c9 9bb8 0b8e bbbb
00000240: 4dcc c3bd a2cb bfbd 86b4 5b3d 94ce c9bd
00000250: b917 acbc 4ee5 5bbc 3d2c 2bbc 89e1 72bd
00000260: 20d3 a6bd e2eb 3dbd b26b 8b3c 1eac 7dbd
00000270: f588 553d 5384 633d 8820 afbd 723d de3c
00000280: 4eb1 f33c 34d9 92bd afb2 a0bb b29d b63c
00000290: 5982 a9bd 1c3b 18bd efde c8bc 0c0b 213d
000002a0: 1c2d d83c 9539 863d 446c 5d3b 29fd 863b
000002b0: 89c9 5d3d 3c06 61bd 1976 5bbd faa8 573c
000002c0: 78a3 953d 2fa7 6bbd 9bba fe3c 99f2 da3c
000002d0: a9d9 a3bd e846 34bd cfcc acbc 1ce3 c9bd
000002e0: 45de c7bb ec58 d43c ab56 33bd 050b 9c3c
000002f0: a2d0 e73c c114 f1bb 01c1 343d 48dc 0dbc
00000300: c524 39bd 5cb9 ed3c 4a78 5f3d e741 bd3c
00000310: 1421 8dbd 370b 883d 9ea7 f63c e5fa 983d
00000320: ca6a 0fbd 2f92 883d 8b0a 5fbd e2b6 d3bc
00000330: 5058 23bb 028b 913c 99b5 f33c cd15 8f3d
00000340: b934 8d3d 7b71 9cbc 0eb6 b0bd 81ce c7bd
00000350: 0ca6 963d 6962 903c 8cd0 943c bfe7 e2bc
00000360: 69e7 4c3c 8a41 77bd 6d20 46bb 9cde 9c3d
00000370: 9b0f b8bc e6ac 39bd 61d0 c23c 14fe 9dbc
00000380: c0af 31bd 28cc 013d f0d3 c9bd 5554 8e3d
00000390: 31b5 6e3d 50d0 803c 06f5 35bb f0b2 0d3d
000003a0: 4bf3 abbd 603b 9d3d 1c31 813d d29d c3bd
000003b0: 5474 1a3d a572 783a dfb8 f03c ef4d 8f3d
000003c0: a9dc 67bd 66ae 963d 4365 3a3c ea70 f43b
000003d0: 89e0 b3bd 270d f6bc 6fa0 3abd 2707 e43c
000003e0: cc13 c1bd 2d8a d83c 5577 943c c502 12bb
000003f0: 0a81 f3ba 1efb 78bd 71ea 61bd ac60 05bd
0.021721072 -0.04142316 -0.06773954 -0.064902544 -0.013464077 -0.004748774 -0.05427787 0.0012320282
-0.07651668 -0.059890628 -0.07905353 0.06668054 0.028951427 -0.031946287 -0.052090783 0.0076974784
0.03801696 -0.07255301 0.08899294 -0.036908712 0.08296886 -0.060147043 0.08769929 0.051769603
-0.07920188 -0.0021522301 0.059471432 -0.048684675 0.08020032 0.08709023 0.0040204898 -0.03056779
-0.036814686 -0.015499989 -0.058536597 0.018238377 -0.008739253 0.08976237 -0.054756045 0.032182936
-0.03350711 -0.004325935 0.08000709 -0.048530877 -0.029570049 -0.030470649 0.08590322 0.024120918
0.071414284 -0.047743093 -0.017273007 0.029669913 0.0724319 -0.077006064 0.023990389 0.052277464
0.00092226616 -0.036274754 0.014410787 -0.06611989 0.09047804 0.07608635 0.010928866 -0.015549677
-0.03155933 0.083185986 0.05247151 -0.07677126 0.095480815 0.043027878 0.0236882 0.022030005
0.05280965 -0.07389435 -0.016463866 0.031967837 -0.06123742 0.06726816 0.0503786 -0.073776
-0.068073235 0.029434282 -0.08184126 -0.030408718 0.08301674 -0.068777055 0.03340891 0.00034248971
-0.025630413 -0.020982685 0.075976916 0.0020763315 0.07419134 -0.058987428 0.0826396 0.036849488
0.00043326354 -0.017988535 -0.08444004 -0.0736815 0.008559627 -0.016098956 0.009715989 0.08839941
0.014578532 0.09426023 0.008261868 -0.006918332 0.08018711 -0.053704053 0.087169185 -0.077928014
0.0053720693 0.047880698 -0.033801336 -0.06611899 0.046945587 -0.01837035 -0.026959931 -0.01905063
0.041276623 -0.07085736 0.02944276 -0.0751001 -0.031223588 0.085054435 -0.07634709 0.021253878
0.050809477 0.0048216847 -0.018430099 -0.042531442 0.004466633 0.048641257 -0.014016354 -0.054218516
-0.03774882 0.052402943 0.025691532 -0.03921645 -0.026343122 -0.033004954 -7.428568e-05 -0.00572372
-0.09560452 -0.09365012 0.053638957 -0.09853855 -0.021007406 -0.01342137 -0.010447559 -0.05929712
-0.08145738 -0.046367534 0.017019127 -0.061931722 0.052132566 0.055546116 -0.08551127 0.027128909
0.029747631 -0.071703345 -0.0049041132 0.022291992 -0.08276815 -0.037165746 -0.024520366 0.039317176
0.026388697 0.06553952 0.0033786455 0.0041195345 0.054147277 -0.054937586 -0.053579424 0.013162846
0.0730657 -0.057532486 0.03109484 0.026727008 -0.080005 -0.044012934 -0.021093754 -0.09857771
-0.0060994946 0.025921308 -0.043783825 0.019048223 0.028297726 -0.0073572104 0.044129375 -0.008658476
-0.04520108 0.02901905 0.054558076 0.023102714 -0.06891075 0.06642764 0.030109223 0.07469729
-0.03501395 0.06668507 -0.054453414 -0.025844041 -0.0024924465 0.01776648 0.029749678 0.0698658
0.06894822 -0.01909708 -0.08628474 -0.09756184 0.0735589 0.01762505 0.01816585 -0.027698396
0.012506344 -0.060365237 -0.003023173 0.07659647 -0.022468379 -0.045330904 0.023781003 -0.019286193
-0.0433805 0.03168884 -0.09854877 0.06949679 0.058278266 0.015724331 -0.0027764454 0.034594476
-0.08396014 0.076773405 0.06308195 -0.09551586 0.037708595 0.00094775326 0.029385028 0.069972865
-0.056606922 0.073574826 0.011376682 0.0074597495 -0.08783061 -0.030035568 -0.045563158 0.027835442
-0.09427604 0.026433075 0.018123308 -0.0022279483 -0.0018577885 -0.06078636 -0.05515522 -0.032562897

model.3.bias f4 [64]
00000000: 3583 f23c 9605 7c3d f2ef a53d dfa2 ed3b
00000010: 26ae b8bd ac42 c83d 1612 d13b 2677 71bd
00000020: 1cc4 9bbd f874 98bc 308e 9dbd 546f 8f3c
00000030: 2331 8cbd 9808 5ebd 2c3a 803d 9024 1a3d
00000040: 816b 8a3d e5aa d9bc ec3c 85bc b81a 81bc
00000050: a114 73bd c81e 8cbc 49c8 8cbb 70b1 98bd
00000060: adb3 8abd 1727 853d 8bd7 f73b 0d24 f7bc
00000070: 51cf 523d 8a42 543d 8529 afbc c0f5 46bd
00000080: bf25 7f3a 5acf 583c 0738 153b c8ef 86bd
00000090: eb24 573c 5702 523d 5178 a83d 56bd 323d
000000a0: 3e82 d3bc a1a2 a33d 9960 8c3d 586b f43c
000000b0: 9f32 e4bc 9eb8 20bc a381 5abd be10 c8bc
000000c0: 2b6e adbc 72d1 cebc a1ec 303d c621 c23c
000000d0: b785 0dbd 9c5e de3c 65fc 233d 49db 8e3d
000000e0: 65a9 abbc 48a6 813d 0eaf 8cbc 8209 5fbc
000000f0: 240c 31bd 92d9 b0bc da15 aabd c633 a3bd
0.02960358 0.061528765 0.081024066 0.0072520818 -0.09017591 0.09778342 0.00638033 -0.05895152
-0.07605764 -0.018610463 -0.07693136 0.01750914 -0.068453096 -0.054207414 0.062610954 0.037632525
0.06758786 -0.026570747 -0.016264401 -0.01575981 -0.059345845 -0.017104521 -0.004296337 -0.074557185
-0.06772552 0.065015964 0.0075635365 -0.030168558 0.051467244 0.05182127 -0.021382103 -0.04857421
0.00097331026 0.01323303 0.002276899 -0.065887034 0.0131313605 0.051271763 0.082260735 0.043637596
-0.02581894 0.079900034 0.06854362 0.029836342 -0.02785617 -0.009809641 -0.053346287 -0.024422046
-0.021170696 -0.025246356 0.043194417 0.023697745 -0.03455135 0.027144723 0.040035624 0.06975419
-0.020954797 0.06330544 -0.017173316 -0.013613107 -0.04322447 -0.02158812 -0.08304949 -0.079688594

model.6.weight f4 [32, 64]
00000000: 6449 9b3d 2c5b c6bd 2dd0 98bb 4e81 dc3c
00000010: 2d13 b93d f743 7e3d b16b 9b3d b2dd b13d
00000020: 16a8 653c 28e9 04be c559 e7bd 7e5d 6ebb
00000030: 4ae6 a0bc 1755 bfbd a565 cfbd fce9 d2bd
00000040: 0d74 3cbd 6cb1 adbd 4267 243d 6638 47bc
00000050: 8a19 f9bd 2950 febc 6903 f7bd 1bfc bbbd
00000060: f697 05be ad33 b4bd bd6f 6cbd 4b69 d33d
00000070: d1c1 503b 5cb6 6bbd 92e3 9bbc fa4e a2bc
00000080: c7fb 4a3d f115 ce3d 3244 bbbd 149e 493d
00000090: 5174 65bd 16c1 02bd 34c0 aa3d a3c0 22bd
000000a0: 1e3c 8dbd db9f c43d 9f4e e33d 10e3 053d
000000b0: bc4e 7cbd 24d0 af3b 160a 9fbd a8cc e7bc
000000c0: 418d f23c 66fa 723d 1376 6fbd 477b 08be
000000d0: cdd0 9e3c 6697 8ebc 40f9 c7bd ae53 c5bd
000000e0: 91af c4bd b883 59bc 8498 a4bd 9c0d afbd
000000f0: 781d 4abd 1a07 7e3c 5d1d f2bb 5abb 7c3c
00000100: 10cd 90bd 1bf7 043e 617f d6bd 505f 043d
00000110: b353 8dbd 09d8 853d 5722 a73c a228 933d
00000120: 8cfd c83c 7581 9d3d 9d16 c3bd 9e96 d9bd
00000130: 644a c03c 1ade 8abd 35a4 ba3d b6ce 2b3c
00000140: 1755 ba3d b8eb 7d3d cced 05bc 742f 73bc
00000150: fd93 e0bd fba9 573d b109 1a3c b6a6 e03c
00000160: 3f50 5e3d 9fbc 9e3d 6984 863d cf43 b53d
00000170: b534 9dbd 63c5 8abc c665 1c3d c683 04bd
00000180: e3db ef3d 3089 863c 4c46 153d f0a3 76bd
00000190: 2e44 3f3d e353 3dbc 81ef fc3d 3a8d 2f3d
000001a0: 20d6 8f3d 4888 983d 8b2e 443d eaa1 20bd
000001b0: 40be f53d 6b87 aa3d 0853 c7bd 5c98 fc3d
000001c0: 13ee 9abd 6725 bcbc fcf3 813d ecb5 a63d
000001d0: 0772 993d c4a2 c13d f8c5 693d 595f 2ebd
000001e0: 2a09 47bd 11dd 02bd edd4 d43b 3525 f83d
000001f0: c17a 1fbc bdeb f83d 4600 34bd 276b ff3d
00000200: 3323 cabd 0624 50bd 010d b4bd 0e87 d2bd
00000210: 05fb adbb a74d 07bd 5d7b 8ebd ad17 d2bd
00000220: fdc9 143d 3540 a53d 68df e0bc da18 f43c
00000230: c616 b23d fd50 c23d 72e4 5c3d ff09 fb3d
00000240: 737b b1bd 4243 8dbc 2242 003e 0bc1 a83c
00000250: 0066 2dbd 43c2 563d 1fca ff3d 9eb5 07bd
00000260: ee3f 1ebc 5890 9c3d 92d3 a83d c5e8 87bd
00000270: cc96 f33d f5ce 7f3d fead 85bd a029 70bb
00000280: 2fad 363d 323a 98bd 7bd1 be3c a6ed 9b3d
00000290: 03d7 813c dfe3 87bc 8a1e bdbd 3dc0 ee3c
000002a0: 415b 803d 19f6 e83d 21f2 053d e23d 45bd
000002b0: 7d61 e83d 8841 eb3d 3c28 87bd 699c 1a3d
000002c0: c6e4 983d 0cf2 86bb ce2f ee3d fb70 d63c
000002d0: 705e 023e 8bf7 b43d 127f a63b 06c4 e03d
000002e0: 47ee 003e a067 bebd d901 c13c 737c d5bd
000002f0: 7cc6 a83d db09 103d cd6c 23bd 7b43 083c
00000300: 4a90 4e3d f6d4 9c3d 0942 623c 1a63 33bd
00000310: 7947 71bc e57f d3bd b99b cbbd 4fa1 813d
00000320: 4301 1dbd cc20 c63d 0aac 59bd 117d e83d
00000330: bb17 883c ad44 28bb 1de9 813b 7be9 6dbd
00000340: c6cd 963d 26c4 383d 4f84 a3bd f31f ddbd
00000350: f63f 8f3d b9d4 c53d 71b3 e63d bfcd f83d
00000360: bd48 de3d 8c16 fc3d 1d05 80bd 562d a6bd
00000370: 624a 583d 8760 6e3d a644 a03c e4da f1b9
00000380: d2c7 413c 22dc debd 12ce dabc 9ad0 66bd
00000390: 6485 e3bd b21b 91bc e9d0 f23d 6f80 65bb
000003a0: 345d 0fbc a3d6 cc3d 9e7a 97bd ef55 b6bd
000003b0: 7a9c a5bd 1b08 adbd dadf fb3b c7de 13bd
000003c0: 186e fd3d 466d d53d 06d8 dd3d f19a 043e
000003d0: 6140 44bd 9630 8b3c 4333 803d c432 42bd
000003e0: 88bf a3bd 1812 e23d 2d4e c63d 32bd f73d
000003f0: ee29 debb 404b c53d 7e8a cdbd dbef b63d
0.075823575 -0.096853584 -0.0046634884 0.026917126 0.090368606 0.062076535 0.075889 0.08684863
0.014017126 -0.12979567 -0.11296419 -0.0036371644 -0.01964106 -0.093424015 -0.10126809 -0.10298535
-0.046009112 -0.08481106 0.040137537 -0.0121594425 -0.12163074 -0.031044083 -0.12061197 -0.09178945
-0.1304625 -0.08798919 -0.05772375 0.103228174 0.0031853805 -0.05754696 -0.019029412 -0.01981305
0.04955652 0.10062779 -0.091438666 0.04922302 -0.05601913 -0.031922422 0.08337441 -0.039734494
-0.06896232 0.096008025 0.1109898 0.032687247 -0.061598524 0.0053653885 -0.077655956 -0.02829583
0.02960837 0.05932083 -0.058462214 -0.13328277 0.019386673 -0.017406177 -0.097643375 -0.09635101
-0.09603799 -0.013276033 -0.080369025 -0.08547518 -0.04934451 0.015504623 -0.0073887543 0.0154255275
-0.070703626 0.12984888 -0.10473514 0.03231746 -0.0690073 0.06535346 0.020402117 0.071854845
0.024534963 0.076907076 -0.095257975 -0.10624431 0.023472972 -0.06780644 0.09113351 0.010486295
0.09098261 0.061992377 -0.008174371 -0.014842857 -0.109657265 0.05265234 0.009401725 0.027423244
0.054275747 0.0775082 0.06568224 0.08850824 -0.07676069 -0.016939824 0.038182996 -0.03235223
0.11711862 0.016422838 0.036443993 -0.060214937 0.04669588 -0.011555645 0.12350369 0.042859294
0.07023263 0.074478686 0.04789595 -0.039216913 0.11999178 0.0832661 -0.09732634 0.12333748
-0.0756494 -0.022967054 0.063453645 0.081401676 0.07492452 0.09454873 0.057073563 -0.0425714
-0.048592724 -0.031949107 0.0064951093 0.12116472 -0.009733857 0.121543385 -0.043945573 0.124716096
-0.09869995 -0.050815605 -0.08791543 -0.10279666 -0.005309465 -0.03303304 -0.069571234 -0.10258422
0.036325444 0.08068887 -0.027450278 0.029797006 0.0869575 0.094881035 0.0539288 0.12257766
-0.08666124 -0.017243985 0.12525228 0.020599863 -0.042333603 0.052431356 0.124897234 -0.033132188
-0.009658797 0.07644719 0.08243479 -0.06636194 0.118939966 0.06245323 -0.06527327 -0.0036645904
0.044598754 -0.07432975 0.023293247 0.07613687 0.015849596 -0.01658815 -0.092343405 0.0291444
0.06267405 0.113750644 0.032701615 -0.04815472 0.113467194 0.114871085 -0.06599471 0.03774682
0.0746551 -0.0041182097 0.11630212 0.02617692 0.12731338 0.088362776 0.005081066 0.109748885
0.12590896 -0.09297109 0.023560451 -0.104241274 0.08240983 0.03516565 -0.039898682 0.00831687
0.050430574 0.076578066 0.013809689 -0.043795682 -0.014726513 -0.10327128 -0.09941811 0.06329595
-0.03833128 0.09674224 -0.053142585 0.113519795 0.016612878 -0.00256757 0.003964557 -0.058083992
0.07363467 0.045108937 -0.0798422 -0.107971095 0.069946215 0.09659714 0.112646945 0.12148618
0.108537175 0.12308988 -0.06250975 -0.08114116 0.052805312 0.058197524 0.019563984 -0.00046130188
0.011827426 -0.10881831 -0.02670959 -0.05635128 -0.111094266 -0.017713401 0.11856253 -0.003501918
-0.008750249 0.10001876 -0.07396434 -0.08903109 -0.08086486 -0.084488116 0.0076865973 -0.03610113
0.12374514 0.10421233 0.10832219 0.1294973 -0.04791296 0.016990941 0.062597774 -0.047411695
-0.07995516 0.11038607 0.096828796 0.12096633 -0.0067799008 0.096334934 -0.10036181 0.089324676

model.6.bias f4 [32]
00000000: 5f87 e5bd 1471 ab3d c437 c2bd 2689 f03d
00000010: 0a64 e33c 92d2 283d 0327 9fbd 220c 153d
00000020: f64d 88bd cb7f 5cbd 044c b4bc f15f bb3d
00000030: 4578 383b 242f 9d3d 84c3 78bd 3d34 aabd
00000040: a8d9 a1bd e2df d53d 237a 523d 47c3 f73c
00000050: fb03 54bd 1829 aabc 23b7 9e3d e708 68bd
00000060: 6731 883d cdb6 813d f756 23bd 6612 b1bd
00000070: 3030 5abd 7a9b 77bc 7522 703d f10c c03c
-0.112074606 0.08371177 -0.09483293 0.11744909 0.027757663 0.04121644 -0.07771113 0.036388524
-0.06655495 -0.05383281 -0.022008903 0.09149159 0.0028147858 0.07675007 -0.060733333 -0.08310745
-0.07902843 0.10443093 0.05138601 0.030244483 -0.05176161 -0.020771548 0.07749774 -0.056649115
0.06650048 0.063336946 -0.039877858 -0.08646087 -0.05326861 -0.015112752 0.05862661 0.023443671

model.9.weight f4 [1, 32]
00000000: 10a9 05be c1c9 e03d e033 143e 611e 023d
00000010: fd17 c5bd 3016 1e3e 1ba8 df3d 1cc4 a53c
00000020: 4d24 06be f257 6dbb 91e2 4bbb 89fd aebd
00000030: 5741 343e 1427 7b3d e526 1abe ce17 1bbe
00000040: aae0 88bd beea 1fbd 4ffb 193c c8e2 85bd
00000050: defd fdbd 93b4 9d3d da01 d93d 65d4 f3bc
00000060: 520e e3bc 3905 703c eac5 22be f696 1c3e
00000070: eb78 86bd 50e3 4c3d da18 71bc 3fc7 0bbe
-0.13052773 0.109759815 0.14472914 0.031767253 -0.09623716 0.15438151 0.109207354 0.020235114
-0.13099785 -0.003621575 -0.0031110386 -0.08544452 0.1760305 0.061316565 -0.150539 -0.151458
-0.06683476 -0.039042227 0.009398296 -0.06537396 -0.12401937 0.077004574 0.10596056 -0.029764364
-0.02771679 0.014649683 -0.1589581 0.15291962 -0.06566032 0.05002147 -0.014715398 -0.13650225
